

building world...
creating intersections...
intersections created.
parsing roads...
roads parsed.
world built.
DQNNet(
  (dense_1): Linear(in_features=20, out_features=20, bias=True)
  (dense_2): Linear(in_features=20, out_features=20, bias=True)
  (dense_3): Linear(in_features=20, out_features=8, bias=True)
)
2024-08-06 13:13:16 (INFO): step:3600/3600, q_loss:0, rewards:-4044.553125, queue:56.809953703703705, delay:0.2959494979293258, throughput:5264
2024-08-06 13:13:16 (INFO): episode:0/200, real avg travel time:706.4027005559968
building world...
creating intersections...
intersections created.
parsing roads...
roads parsed.
world built.
MYYFRAP(
  (p): Embedding(2, 4)
  (d): Linear(in_features=1, out_features=4, bias=True)
  (lane_embedding): Linear(in_features=8, out_features=16, bias=True)
  (lane_conv): Conv2d(32, 20, kernel_size=(1, 1), stride=(1, 1))
  (relation_embedding): Embedding(2, 4)
  (relation_conv): Conv2d(4, 20, kernel_size=(1, 1), stride=(1, 1))
  (hidden_layer): Conv2d(20, 20, kernel_size=(1, 1), stride=(1, 1))
  (before_merge): Conv2d(20, 1, kernel_size=(1, 1), stride=(1, 1))
)
2024-08-06 13:14:54 (INFO): step:3600/3600, q_loss:0, rewards:-263.5786458333333, queue:60.59351851851852, delay:0.29384033768265333, throughput:5138
2024-08-06 13:14:55 (INFO): episode:0/200, real avg travel time:744.5046862589356
2024-08-06 13:20:23 (INFO): Test step:0/200, travel time :1368.6379666401906, rewards:-12995.802777777777, queue:140.86666666666667, delay:0.42482296978985823, throughput:2830
…
